Model: "discriminator"
_________________________________________________________________
Layer (type)                 Output Shape              Param #   
=================================================================
conv2d_1 (Conv2D)            (None, 32, 32, 32)        2432      
_________________________________________________________________
leaky_re_lu_1 (LeakyReLU)    (None, 32, 32, 32)        0         
_________________________________________________________________
dropout_1 (Dropout)          (None, 32, 32, 32)        0         
_________________________________________________________________
conv2d_2 (Conv2D)            (None, 16, 16, 64)        51264     
_________________________________________________________________
batch_normalization_1 (Batch (None, 16, 16, 64)        256       
_________________________________________________________________
leaky_re_lu_2 (LeakyReLU)    (None, 16, 16, 64)        0         
_________________________________________________________________
dropout_2 (Dropout)          (None, 16, 16, 64)        0         
_________________________________________________________________
conv2d_3 (Conv2D)            (None, 8, 8, 128)         204928    
_________________________________________________________________
batch_normalization_2 (Batch (None, 8, 8, 128)         512       
_________________________________________________________________
leaky_re_lu_3 (LeakyReLU)    (None, 8, 8, 128)         0         
_________________________________________________________________
dropout_3 (Dropout)          (None, 8, 8, 128)         0         
_________________________________________________________________
conv2d_4 (Conv2D)            (None, 4, 4, 256)         819456    
_________________________________________________________________
batch_normalization_3 (Batch (None, 4, 4, 256)         1024      
_________________________________________________________________
leaky_re_lu_4 (LeakyReLU)    (None, 4, 4, 256)         0         
_________________________________________________________________
dropout_4 (Dropout)          (None, 4, 4, 256)         0         
_________________________________________________________________
conv2d_5 (Conv2D)            (None, 2, 2, 512)         3277312   
_________________________________________________________________
batch_normalization_4 (Batch (None, 2, 2, 512)         2048      
_________________________________________________________________
leaky_re_lu_5 (LeakyReLU)    (None, 2, 2, 512)         0         
_________________________________________________________________
dropout_5 (Dropout)          (None, 2, 2, 512)         0         
_________________________________________________________________
flatten_1 (Flatten)          (None, 2048)              0         
_________________________________________________________________
dense_1 (Dense)              (None, 1)                 2049      
_________________________________________________________________
activation_1 (Activation)    (None, 1)                 0         
=================================================================
Total params: 4,361,281
Trainable params: 4,359,361
Non-trainable params: 1,920
_________________________________________________________________
WARNING:tensorflow:From C:\Users\Ultra-QST\PycharmProjects\oldcats\venv\lib\site-packages\tensorflow\python\ops\nn_impl.py:180: add_dispatch_support.<locals>.wrapper (from tensorflow.python.ops.array_ops) is deprecated and will be removed in a future version.
Instructions for updating:
Use tf.where in 2.0, which has the same broadcast rule as np.where
Model: "generator"
_________________________________________________________________
Layer (type)                 Output Shape              Param #   
=================================================================
dense_2 (Dense)              (None, 32768)             2129920   
_________________________________________________________________
leaky_re_lu_6 (LeakyReLU)    (None, 32768)             0         
_________________________________________________________________
reshape_1 (Reshape)          (None, 8, 8, 512)         0         
_________________________________________________________________
up_sampling2d_1 (UpSampling2 (None, 16, 16, 512)       0         
_________________________________________________________________
conv2d_transpose_1 (Conv2DTr (None, 16, 16, 256)       3277056   
_________________________________________________________________
batch_normalization_5 (Batch (None, 16, 16, 256)       1024      
_________________________________________________________________
leaky_re_lu_7 (LeakyReLU)    (None, 16, 16, 256)       0         
_________________________________________________________________
up_sampling2d_2 (UpSampling2 (None, 32, 32, 256)       0         
_________________________________________________________________
conv2d_transpose_2 (Conv2DTr (None, 32, 32, 128)       819328    
_________________________________________________________________
batch_normalization_6 (Batch (None, 32, 32, 128)       512       
_________________________________________________________________
leaky_re_lu_8 (LeakyReLU)    (None, 32, 32, 128)       0         
_________________________________________________________________
up_sampling2d_3 (UpSampling2 (None, 64, 64, 128)       0         
_________________________________________________________________
conv2d_transpose_3 (Conv2DTr (None, 64, 64, 64)        204864    
_________________________________________________________________
batch_normalization_7 (Batch (None, 64, 64, 64)        256       
_________________________________________________________________
leaky_re_lu_9 (LeakyReLU)    (None, 64, 64, 64)        0         
_________________________________________________________________
conv2d_transpose_4 (Conv2DTr (None, 64, 64, 3)         4803      
=================================================================
Total params: 6,437,763
Trainable params: 6,436,867
Non-trainable params: 896
_________________________________________________________________
WARNING:tensorflow:From C:\Users\Ultra-QST\PycharmProjects\oldcats\venv\lib\site-packages\keras\backend\tensorflow_backend.py:422: The name tf.global_variables is deprecated. Please use tf.compat.v1.global_variables instead.
…
